…
test_net: "test.prototxt"
test_iter: 1
test_interval: 200
base_lr: 0.0001
display: 20
max_iter: 5000
lr_policy: "step"
gamma: 0.1
momentum: 0.9
weight_decay: 0.0005
stepsize: 1000
snapshot: 1000
snapshot_prefix: "multi_label_train"
solver_mode: GPU
I0120 16:21:04.139761 27121 solver.cpp:56] Creating training net from file: train.prototxt
I0120 16:21:04.140022 27121 net.cpp:39] Initializing net from parameters: 
name: "CaffeNet"
layers {
  top: "data"
  top: "label"
  name: "data"
  type: DATA
  data_param {
    source: "multi-label-train.leveldb"
    mean_file: "mean.binaryproto"
    batch_size: 4
  }
}
layers {
  bottom: "data"
  top: "ip1"
  name: "ip1"
  type: INNER_PRODUCT
  blobs_lr: 1
  blobs_lr: 2
  inner_product_param {
    num_output: 100
    weight_filler {
      type: "xavier"
    }
    bias_filler {
      type: "constant"
    }
  }
}
layers {
  bottom: "ip1"
  top: "ip1"
  name: "relu1"
  type: RELU
}
layers {
  bottom: "ip1"
  top: "ipout2"
  name: "ip2"
  type: INNER_PRODUCT
  blobs_lr: 1
  blobs_lr: 2
  inner_product_param {
    num_output: 3
    weight_filler {
      type: "xavier"
    }
    bias_filler {
      type: "constant"
    }
  }
}
layers {
  bottom: "ipout2"
  bottom: "label"
  name: "loss"
  type: MULTI_LABEL_LOSS
}
I0120 16:21:04.140101 27121 net.cpp:67] Creating Layer data
I0120 16:21:04.140112 27121 net.cpp:187] data -> data
I0120 16:21:04.140133 27121 net.cpp:187] data -> label
I0120 16:21:04.140172 27121 data_layer.cpp:193] Opening leveldb multi-label-train.leveldb
I0120 16:21:04.238325 27121 data_layer.cpp:278] output data size: 4,3,16,16
I0120 16:21:04.238353 27121 data_layer.cpp:286] output label size: 4,3,1,1
I0120 16:21:04.238364 27121 data_layer.cpp:303] Loading mean file frommean.binaryproto
I0120 16:21:04.238494 27121 net.cpp:84] Top shape: 4 3 16 16 (3072)
I0120 16:21:04.238512 27121 net.cpp:84] Top shape: 4 3 1 1 (12)
I0120 16:21:04.238523 27121 net.cpp:126] data does not need backward computation.
I0120 16:21:04.238539 27121 net.cpp:67] Creating Layer ip1
I0120 16:21:04.238550 27121 net.cpp:226] ip1 <- data
I0120 16:21:04.238569 27121 net.cpp:187] ip1 -> ip1
I0120 16:21:04.240408 27121 net.cpp:84] Top shape: 4 100 1 1 (400)
I0120 16:21:04.240434 27121 net.cpp:121] ip1 needs backward computation.
I0120 16:21:04.240448 27121 net.cpp:67] Creating Layer relu1
I0120 16:21:04.240458 27121 net.cpp:226] relu1 <- ip1
I0120 16:21:04.240469 27121 net.cpp:177] relu1 -> ip1 (in-place)
I0120 16:21:04.240492 27121 net.cpp:84] Top shape: 4 100 1 1 (400)
I0120 16:21:04.240502 27121 net.cpp:121] relu1 needs backward computation.
I0120 16:21:04.240515 27121 net.cpp:67] Creating Layer ip2
I0120 16:21:04.240522 27121 net.cpp:226] ip2 <- ip1
I0120 16:21:04.240535 27121 net.cpp:187] ip2 -> ipout2
I0120 16:21:04.240567 27121 net.cpp:84] Top shape: 4 3 1 1 (12)
I0120 16:21:04.240581 27121 net.cpp:121] ip2 needs backward computation.
I0120 16:21:04.240597 27121 net.cpp:67] Creating Layer loss
I0120 16:21:04.240604 27121 net.cpp:226] loss <- ipout2
I0120 16:21:04.240614 27121 net.cpp:226] loss <- label
I0120 16:21:04.240633 27121 net.cpp:121] loss needs backward computation.
I0120 16:21:04.240648 27121 net.cpp:295] Collecting Learning Rate and Weight Decay.
I0120 16:21:04.240658 27121 net.cpp:159] Network initialization done.
I0120 16:21:04.240664 27121 net.cpp:160] Memory required for data: 0
I0120 16:21:04.240699 27121 solver.cpp:75] Creating testing net (#0) from file: test.prototxt
I0120 16:21:04.241027 27121 net.cpp:39] Initializing net from parameters: 
name: "CaffeNet"
layers {
  top: "data"
  top: "label"
  name: "data"
  type: DATA
  data_param {
    source: "multi-label-test.leveldb"
    mean_file: "mean.binaryproto"
    batch_size: 40
  }
}
layers {
  bottom: "data"
  top: "ip1"
  name: "ip1"
  type: INNER_PRODUCT
  inner_product_param {
    num_output: 100
    weight_filler {
      type: "xavier"
    }
    bias_filler {
      type: "constant"
    }
  }
}
layers {
  bottom: "ip1"
  top: "ip1"
  name: "relu1"
  type: RELU
}
layers {
  bottom: "ip1"
  top: "ipout2"
  name: "ip2"
  type: INNER_PRODUCT
  inner_product_param {
    num_output: 3
    weight_filler {
      type: "xavier"
    }
    bias_filler {
      type: "constant"
    }
  }
}
layers {
  bottom: "ipout2"
  bottom: "label"
  top: "accuracy"
  name: "accuracy"
  type: MULTI_LABEL_ACCURACY
}
I0120 16:21:04.241102 27121 net.cpp:67] Creating Layer data
I0120 16:21:04.241117 27121 net.cpp:187] data -> data
I0120 16:21:04.241134 27121 net.cpp:187] data -> label
I0120 16:21:04.241152 27121 data_layer.cpp:193] Opening leveldb multi-label-test.leveldb
I0120 16:21:04.347527 27121 data_layer.cpp:278] output data size: 40,3,16,16
I0120 16:21:04.347551 27121 data_layer.cpp:286] output label size: 40,3,1,1
I0120 16:21:04.347563 27121 data_layer.cpp:303] Loading mean file frommean.binaryproto
I0120 16:21:04.347754 27121 net.cpp:84] Top shape: 40 3 16 16 (30720)
I0120 16:21:04.347774 27121 net.cpp:84] Top shape: 40 3 1 1 (120)
I0120 16:21:04.347784 27121 net.cpp:126] data does not need backward computation.
I0120 16:21:04.347798 27121 net.cpp:67] Creating Layer ip1
I0120 16:21:04.347807 27121 net.cpp:226] ip1 <- data
I0120 16:21:04.347821 27121 net.cpp:187] ip1 -> ip1
I0120 16:21:04.349494 27121 net.cpp:84] Top shape: 40 100 1 1 (4000)
I0120 16:21:04.349520 27121 net.cpp:121] ip1 needs backward computation.
I0120 16:21:04.349534 27121 net.cpp:67] Creating Layer relu1
I0120 16:21:04.349542 27121 net.cpp:226] relu1 <- ip1
I0120 16:21:04.349555 27121 net.cpp:177] relu1 -> ip1 (in-place)
I0120 16:21:04.349570 27121 net.cpp:84] Top shape: 40 100 1 1 (4000)
I0120 16:21:04.349578 27121 net.cpp:121] relu1 needs backward computation.
I0120 16:21:04.349589 27121 net.cpp:67] Creating Layer ip2
I0120 16:21:04.349597 27121 net.cpp:226] ip2 <- ip1
I0120 16:21:04.349609 27121 net.cpp:187] ip2 -> ipout2
I0120 16:21:04.349642 27121 net.cpp:84] Top shape: 40 3 1 1 (120)
I0120 16:21:04.349653 27121 net.cpp:121] ip2 needs backward computation.
I0120 16:21:04.349665 27121 net.cpp:67] Creating Layer accuracy
I0120 16:21:04.349673 27121 net.cpp:226] accuracy <- ipout2
I0120 16:21:04.349684 27121 net.cpp:226] accuracy <- label
I0120 16:21:04.349696 27121 net.cpp:187] accuracy -> accuracy
I0120 16:21:04.349711 27121 net.cpp:84] Top shape: 1 5 1 1 (5)
I0120 16:21:04.349720 27121 net.cpp:121] accuracy needs backward computation.
I0120 16:21:04.349728 27121 net.cpp:148] This network produces output accuracy
I0120 16:21:04.349742 27121 net.cpp:295] Collecting Learning Rate and Weight Decay.
I0120 16:21:04.349753 27121 net.cpp:159] Network initialization done.
I0120 16:21:04.349761 27121 net.cpp:160] Memory required for data: 0
I0120 16:21:04.349787 27121 solver.cpp:79] Solver scaffolding done.
…
