…
test_net: "test.prototxt"
test_iter: 1
test_interval: 200
base_lr: 0.0001
display: 20
max_iter: 5000
lr_policy: "step"
gamma: 0.1
momentum: 0.9
weight_decay: 0.0005
stepsize: 1000
snapshot: 1000
snapshot_prefix: "multi_label_train"
solver_mode: GPU
I0120 16:22:02.825598 10394 solver.cpp:56] Creating training net from file: train.prototxt
I0120 16:22:02.825844 10394 net.cpp:39] Initializing net from parameters: 
name: "CaffeNet"
layers {
  top: "data"
  top: "label"
  name: "data"
  type: DATA
  data_param {
    source: "multi-label-train.leveldb"
    mean_file: "mean.binaryproto"
    batch_size: 4
  }
}
layers {
  bottom: "data"
  top: "ip1"
  name: "ip1"
  type: INNER_PRODUCT
  blobs_lr: 1
  blobs_lr: 2
  inner_product_param {
    num_output: 150
    weight_filler {
      type: "xavier"
    }
    bias_filler {
      type: "constant"
    }
  }
}
layers {
  bottom: "ip1"
  top: "ip1"
  name: "relu1"
  type: RELU
}
layers {
  bottom: "ip1"
  top: "ipout2"
  name: "ip2"
  type: INNER_PRODUCT
  blobs_lr: 1
  blobs_lr: 2
  inner_product_param {
    num_output: 3
    weight_filler {
      type: "xavier"
    }
    bias_filler {
      type: "constant"
    }
  }
}
layers {
  bottom: "ipout2"
  bottom: "label"
  name: "loss"
  type: MULTI_LABEL_LOSS
}
I0120 16:22:02.825897 10394 net.cpp:67] Creating Layer data
I0120 16:22:02.825903 10394 net.cpp:187] data -> data
I0120 16:22:02.825917 10394 net.cpp:187] data -> label
I0120 16:22:02.825947 10394 data_layer.cpp:193] Opening leveldb multi-label-train.leveldb
I0120 16:22:03.049172 10394 data_layer.cpp:278] output data size: 4,3,16,16
I0120 16:22:03.049190 10394 data_layer.cpp:286] output label size: 4,3,1,1
I0120 16:22:03.049195 10394 data_layer.cpp:303] Loading mean file frommean.binaryproto
I0120 16:22:03.049266 10394 net.cpp:84] Top shape: 4 3 16 16 (3072)
I0120 16:22:03.049274 10394 net.cpp:84] Top shape: 4 3 1 1 (12)
I0120 16:22:03.049279 10394 net.cpp:126] data does not need backward computation.
I0120 16:22:03.049289 10394 net.cpp:67] Creating Layer ip1
I0120 16:22:03.049299 10394 net.cpp:226] ip1 <- data
I0120 16:22:03.049314 10394 net.cpp:187] ip1 -> ip1
I0120 16:22:03.050479 10394 net.cpp:84] Top shape: 4 150 1 1 (600)
I0120 16:22:03.050494 10394 net.cpp:121] ip1 needs backward computation.
I0120 16:22:03.050505 10394 net.cpp:67] Creating Layer relu1
I0120 16:22:03.050516 10394 net.cpp:226] relu1 <- ip1
I0120 16:22:03.050528 10394 net.cpp:177] relu1 -> ip1 (in-place)
I0120 16:22:03.050539 10394 net.cpp:84] Top shape: 4 150 1 1 (600)
I0120 16:22:03.050544 10394 net.cpp:121] relu1 needs backward computation.
I0120 16:22:03.050549 10394 net.cpp:67] Creating Layer ip2
I0120 16:22:03.050552 10394 net.cpp:226] ip2 <- ip1
I0120 16:22:03.050562 10394 net.cpp:187] ip2 -> ipout2
I0120 16:22:03.050578 10394 net.cpp:84] Top shape: 4 3 1 1 (12)
I0120 16:22:03.050585 10394 net.cpp:121] ip2 needs backward computation.
I0120 16:22:03.050590 10394 net.cpp:67] Creating Layer loss
I0120 16:22:03.050593 10394 net.cpp:226] loss <- ipout2
I0120 16:22:03.050597 10394 net.cpp:226] loss <- label
I0120 16:22:03.050606 10394 net.cpp:121] loss needs backward computation.
I0120 16:22:03.050614 10394 net.cpp:295] Collecting Learning Rate and Weight Decay.
I0120 16:22:03.050619 10394 net.cpp:159] Network initialization done.
I0120 16:22:03.050621 10394 net.cpp:160] Memory required for data: 0
I0120 16:22:03.050638 10394 solver.cpp:75] Creating testing net (#0) from file: test.prototxt
I0120 16:22:03.050801 10394 net.cpp:39] Initializing net from parameters: 
name: "CaffeNet"
layers {
  top: "data"
  top: "label"
  name: "data"
  type: DATA
  data_param {
    source: "multi-label-test.leveldb"
    mean_file: "mean.binaryproto"
    batch_size: 40
  }
}
layers {
  bottom: "data"
  top: "ip1"
  name: "ip1"
  type: INNER_PRODUCT
  inner_product_param {
    num_output: 150
    weight_filler {
      type: "xavier"
    }
    bias_filler {
      type: "constant"
    }
  }
}
layers {
  bottom: "ip1"
  top: "ip1"
  name: "relu1"
  type: RELU
}
layers {
  bottom: "ip1"
  top: "ipout2"
  name: "ip2"
  type: INNER_PRODUCT
  inner_product_param {
    num_output: 3
    weight_filler {
      type: "xavier"
    }
    bias_filler {
      type: "constant"
    }
  }
}
layers {
  bottom: "ipout2"
  bottom: "label"
  top: "accuracy"
  name: "accuracy"
  type: MULTI_LABEL_ACCURACY
}
I0120 16:22:03.050837 10394 net.cpp:67] Creating Layer data
I0120 16:22:03.050843 10394 net.cpp:187] data -> data
I0120 16:22:03.050850 10394 net.cpp:187] data -> label
I0120 16:22:03.050858 10394 data_layer.cpp:193] Opening leveldb multi-label-test.leveldb
I0120 16:22:03.166811 10394 data_layer.cpp:278] output data size: 40,3,16,16
I0120 16:22:03.166838 10394 data_layer.cpp:286] output label size: 40,3,1,1
I0120 16:22:03.166848 10394 data_layer.cpp:303] Loading mean file frommean.binaryproto
I0120 16:22:03.167330 10394 net.cpp:84] Top shape: 40 3 16 16 (30720)
I0120 16:22:03.167346 10394 net.cpp:84] Top shape: 40 3 1 1 (120)
I0120 16:22:03.167354 10394 net.cpp:126] data does not need backward computation.
I0120 16:22:03.167371 10394 net.cpp:67] Creating Layer ip1
I0120 16:22:03.167379 10394 net.cpp:226] ip1 <- data
I0120 16:22:03.167390 10394 net.cpp:187] ip1 -> ip1
I0120 16:22:03.169349 10394 net.cpp:84] Top shape: 40 150 1 1 (6000)
I0120 16:22:03.169375 10394 net.cpp:121] ip1 needs backward computation.
I0120 16:22:03.169390 10394 net.cpp:67] Creating Layer relu1
I0120 16:22:03.169399 10394 net.cpp:226] relu1 <- ip1
I0120 16:22:03.169410 10394 net.cpp:177] relu1 -> ip1 (in-place)
I0120 16:22:03.169425 10394 net.cpp:84] Top shape: 40 150 1 1 (6000)
I0120 16:22:03.169435 10394 net.cpp:121] relu1 needs backward computation.
I0120 16:22:03.169446 10394 net.cpp:67] Creating Layer ip2
I0120 16:22:03.169453 10394 net.cpp:226] ip2 <- ip1
I0120 16:22:03.169466 10394 net.cpp:187] ip2 -> ipout2
I0120 16:22:03.169500 10394 net.cpp:84] Top shape: 40 3 1 1 (120)
I0120 16:22:03.169515 10394 net.cpp:121] ip2 needs backward computation.
I0120 16:22:03.169528 10394 net.cpp:67] Creating Layer accuracy
I0120 16:22:03.169538 10394 net.cpp:226] accuracy <- ipout2
I0120 16:22:03.169548 10394 net.cpp:226] accuracy <- label
I0120 16:22:03.169562 10394 net.cpp:187] accuracy -> accuracy
I0120 16:22:03.169577 10394 net.cpp:84] Top shape: 1 5 1 1 (5)
I0120 16:22:03.169586 10394 net.cpp:121] accuracy needs backward computation.
I0120 16:22:03.169594 10394 net.cpp:148] This network produces output accuracy
I0120 16:22:03.169606 10394 net.cpp:295] Collecting Learning Rate and Weight Decay.
I0120 16:22:03.169618 10394 net.cpp:159] Network initialization done.
I0120 16:22:03.169625 10394 net.cpp:160] Memory required for data: 0
I0120 16:22:03.169657 10394 solver.cpp:79] Solver scaffolding done.
…
