…
test_net: "test.prototxt"
test_iter: 1
test_interval: 200
base_lr: 0.0001
display: 20
max_iter: 5000
lr_policy: "step"
gamma: 0.1
momentum: 0.9
weight_decay: 0.0005
stepsize: 1000
snapshot: 1000
snapshot_prefix: "multi_label_train"
solver_mode: GPU
I0120 16:22:20.454763 15542 solver.cpp:56] Creating training net from file: train.prototxt
I0120 16:22:20.455023 15542 net.cpp:39] Initializing net from parameters: 
name: "CaffeNet"
layers {
  top: "data"
  top: "label"
  name: "data"
  type: DATA
  data_param {
    source: "multi-label-train.leveldb"
    mean_file: "mean.binaryproto"
    batch_size: 4
  }
}
layers {
  bottom: "data"
  top: "ip1"
  name: "ip1"
  type: INNER_PRODUCT
  blobs_lr: 1
  blobs_lr: 2
  inner_product_param {
    num_output: 250
    weight_filler {
      type: "xavier"
    }
    bias_filler {
      type: "constant"
    }
  }
}
layers {
  bottom: "ip1"
  top: "ip1"
  name: "relu1"
  type: RELU
}
layers {
  bottom: "ip1"
  top: "ipout2"
  name: "ip2"
  type: INNER_PRODUCT
  blobs_lr: 1
  blobs_lr: 2
  inner_product_param {
    num_output: 3
    weight_filler {
      type: "xavier"
    }
    bias_filler {
      type: "constant"
    }
  }
}
layers {
  bottom: "ipout2"
  bottom: "label"
  name: "loss"
  type: MULTI_LABEL_LOSS
}
I0120 16:22:20.455075 15542 net.cpp:67] Creating Layer data
I0120 16:22:20.455081 15542 net.cpp:187] data -> data
I0120 16:22:20.455096 15542 net.cpp:187] data -> label
I0120 16:22:20.455124 15542 data_layer.cpp:193] Opening leveldb multi-label-train.leveldb
I0120 16:22:20.590698 15542 data_layer.cpp:278] output data size: 4,3,16,16
I0120 16:22:20.590728 15542 data_layer.cpp:286] output label size: 4,3,1,1
I0120 16:22:20.590739 15542 data_layer.cpp:303] Loading mean file frommean.binaryproto
I0120 16:22:20.590874 15542 net.cpp:84] Top shape: 4 3 16 16 (3072)
I0120 16:22:20.590893 15542 net.cpp:84] Top shape: 4 3 1 1 (12)
I0120 16:22:20.590903 15542 net.cpp:126] data does not need backward computation.
I0120 16:22:20.590920 15542 net.cpp:67] Creating Layer ip1
I0120 16:22:20.590929 15542 net.cpp:226] ip1 <- data
I0120 16:22:20.590947 15542 net.cpp:187] ip1 -> ip1
I0120 16:22:20.595446 15542 net.cpp:84] Top shape: 4 250 1 1 (1000)
I0120 16:22:20.595474 15542 net.cpp:121] ip1 needs backward computation.
I0120 16:22:20.595489 15542 net.cpp:67] Creating Layer relu1
I0120 16:22:20.595497 15542 net.cpp:226] relu1 <- ip1
I0120 16:22:20.595510 15542 net.cpp:177] relu1 -> ip1 (in-place)
I0120 16:22:20.595535 15542 net.cpp:84] Top shape: 4 250 1 1 (1000)
I0120 16:22:20.595546 15542 net.cpp:121] relu1 needs backward computation.
I0120 16:22:20.595556 15542 net.cpp:67] Creating Layer ip2
I0120 16:22:20.595564 15542 net.cpp:226] ip2 <- ip1
I0120 16:22:20.595577 15542 net.cpp:187] ip2 -> ipout2
I0120 16:22:20.595621 15542 net.cpp:84] Top shape: 4 3 1 1 (12)
I0120 16:22:20.595633 15542 net.cpp:121] ip2 needs backward computation.
I0120 16:22:20.595648 15542 net.cpp:67] Creating Layer loss
I0120 16:22:20.595656 15542 net.cpp:226] loss <- ipout2
I0120 16:22:20.595669 15542 net.cpp:226] loss <- label
I0120 16:22:20.595688 15542 net.cpp:121] loss needs backward computation.
I0120 16:22:20.595703 15542 net.cpp:295] Collecting Learning Rate and Weight Decay.
I0120 16:22:20.595718 15542 net.cpp:159] Network initialization done.
I0120 16:22:20.595726 15542 net.cpp:160] Memory required for data: 0
I0120 16:22:20.595760 15542 solver.cpp:75] Creating testing net (#0) from file: test.prototxt
I0120 16:22:20.596132 15542 net.cpp:39] Initializing net from parameters: 
name: "CaffeNet"
layers {
  top: "data"
  top: "label"
  name: "data"
  type: DATA
  data_param {
    source: "multi-label-test.leveldb"
    mean_file: "mean.binaryproto"
    batch_size: 40
  }
}
layers {
  bottom: "data"
  top: "ip1"
  name: "ip1"
  type: INNER_PRODUCT
  inner_product_param {
    num_output: 250
    weight_filler {
      type: "xavier"
    }
    bias_filler {
      type: "constant"
    }
  }
}
layers {
  bottom: "ip1"
  top: "ip1"
  name: "relu1"
  type: RELU
}
layers {
  bottom: "ip1"
  top: "ipout2"
  name: "ip2"
  type: INNER_PRODUCT
  inner_product_param {
    num_output: 3
    weight_filler {
      type: "xavier"
    }
    bias_filler {
      type: "constant"
    }
  }
}
layers {
  bottom: "ipout2"
  bottom: "label"
  top: "accuracy"
  name: "accuracy"
  type: MULTI_LABEL_ACCURACY
}
I0120 16:22:20.596283 15542 net.cpp:67] Creating Layer data
I0120 16:22:20.596299 15542 net.cpp:187] data -> data
I0120 16:22:20.596318 15542 net.cpp:187] data -> label
I0120 16:22:20.596343 15542 data_layer.cpp:193] Opening leveldb multi-label-test.leveldb
I0120 16:22:20.716508 15542 data_layer.cpp:278] output data size: 40,3,16,16
I0120 16:22:20.716534 15542 data_layer.cpp:286] output label size: 40,3,1,1
I0120 16:22:20.716545 15542 data_layer.cpp:303] Loading mean file frommean.binaryproto
I0120 16:22:20.716739 15542 net.cpp:84] Top shape: 40 3 16 16 (30720)
I0120 16:22:20.716758 15542 net.cpp:84] Top shape: 40 3 1 1 (120)
I0120 16:22:20.716768 15542 net.cpp:126] data does not need backward computation.
I0120 16:22:20.716784 15542 net.cpp:67] Creating Layer ip1
I0120 16:22:20.716794 15542 net.cpp:226] ip1 <- data
I0120 16:22:20.716809 15542 net.cpp:187] ip1 -> ip1
I0120 16:22:20.721040 15542 net.cpp:84] Top shape: 40 250 1 1 (10000)
I0120 16:22:20.721065 15542 net.cpp:121] ip1 needs backward computation.
I0120 16:22:20.721079 15542 net.cpp:67] Creating Layer relu1
I0120 16:22:20.721088 15542 net.cpp:226] relu1 <- ip1
I0120 16:22:20.721101 15542 net.cpp:177] relu1 -> ip1 (in-place)
I0120 16:22:20.721114 15542 net.cpp:84] Top shape: 40 250 1 1 (10000)
I0120 16:22:20.721124 15542 net.cpp:121] relu1 needs backward computation.
I0120 16:22:20.721135 15542 net.cpp:67] Creating Layer ip2
I0120 16:22:20.721143 15542 net.cpp:226] ip2 <- ip1
I0120 16:22:20.721155 15542 net.cpp:187] ip2 -> ipout2
I0120 16:22:20.721194 15542 net.cpp:84] Top shape: 40 3 1 1 (120)
I0120 16:22:20.721206 15542 net.cpp:121] ip2 needs backward computation.
I0120 16:22:20.721218 15542 net.cpp:67] Creating Layer accuracy
I0120 16:22:20.721227 15542 net.cpp:226] accuracy <- ipout2
I0120 16:22:20.721237 15542 net.cpp:226] accuracy <- label
I0120 16:22:20.721249 15542 net.cpp:187] accuracy -> accuracy
I0120 16:22:20.721264 15542 net.cpp:84] Top shape: 1 5 1 1 (5)
I0120 16:22:20.721273 15542 net.cpp:121] accuracy needs backward computation.
I0120 16:22:20.721281 15542 net.cpp:148] This network produces output accuracy
I0120 16:22:20.721295 15542 net.cpp:295] Collecting Learning Rate and Weight Decay.
I0120 16:22:20.721307 15542 net.cpp:159] Network initialization done.
I0120 16:22:20.721315 15542 net.cpp:160] Memory required for data: 0
I0120 16:22:20.721344 15542 solver.cpp:79] Solver scaffolding done.
…
