…
test_net: "test.prototxt"
test_iter: 1
test_interval: 200
base_lr: 0.0001
display: 20
max_iter: 5000
lr_policy: "step"
gamma: 0.1
momentum: 0.9
weight_decay: 0.0005
stepsize: 1000
snapshot: 1000
snapshot_prefix: "multi_label_train"
solver_mode: GPU
I0120 16:22:53.916723 25677 solver.cpp:56] Creating training net from file: train.prototxt
I0120 16:22:53.916966 25677 net.cpp:39] Initializing net from parameters: 
name: "CaffeNet"
layers {
  top: "data"
  top: "label"
  name: "data"
  type: DATA
  data_param {
    source: "multi-label-train.leveldb"
    mean_file: "mean.binaryproto"
    batch_size: 4
  }
}
layers {
  bottom: "data"
  top: "ip1"
  name: "ip1"
  type: INNER_PRODUCT
  blobs_lr: 1
  blobs_lr: 2
  inner_product_param {
    num_output: 300
    weight_filler {
      type: "xavier"
    }
    bias_filler {
      type: "constant"
    }
  }
}
layers {
  bottom: "ip1"
  top: "ip1"
  name: "relu1"
  type: RELU
}
layers {
  bottom: "ip1"
  top: "ipout2"
  name: "ip2"
  type: INNER_PRODUCT
  blobs_lr: 1
  blobs_lr: 2
  inner_product_param {
    num_output: 3
    weight_filler {
      type: "xavier"
    }
    bias_filler {
      type: "constant"
    }
  }
}
layers {
  bottom: "ipout2"
  bottom: "label"
  name: "loss"
  type: MULTI_LABEL_LOSS
}
I0120 16:22:53.917017 25677 net.cpp:67] Creating Layer data
I0120 16:22:53.917024 25677 net.cpp:187] data -> data
I0120 16:22:53.917038 25677 net.cpp:187] data -> label
I0120 16:22:53.917067 25677 data_layer.cpp:193] Opening leveldb multi-label-train.leveldb
I0120 16:22:54.017931 25677 data_layer.cpp:278] output data size: 4,3,16,16
I0120 16:22:54.017949 25677 data_layer.cpp:286] output label size: 4,3,1,1
I0120 16:22:54.017953 25677 data_layer.cpp:303] Loading mean file frommean.binaryproto
I0120 16:22:54.018028 25677 net.cpp:84] Top shape: 4 3 16 16 (3072)
I0120 16:22:54.018038 25677 net.cpp:84] Top shape: 4 3 1 1 (12)
I0120 16:22:54.018046 25677 net.cpp:126] data does not need backward computation.
I0120 16:22:54.018062 25677 net.cpp:67] Creating Layer ip1
I0120 16:22:54.018070 25677 net.cpp:226] ip1 <- data
I0120 16:22:54.018085 25677 net.cpp:187] ip1 -> ip1
I0120 16:22:54.020323 25677 net.cpp:84] Top shape: 4 300 1 1 (1200)
I0120 16:22:54.020339 25677 net.cpp:121] ip1 needs backward computation.
I0120 16:22:54.020350 25677 net.cpp:67] Creating Layer relu1
I0120 16:22:54.020357 25677 net.cpp:226] relu1 <- ip1
I0120 16:22:54.020367 25677 net.cpp:177] relu1 -> ip1 (in-place)
I0120 16:22:54.020385 25677 net.cpp:84] Top shape: 4 300 1 1 (1200)
I0120 16:22:54.020398 25677 net.cpp:121] relu1 needs backward computation.
I0120 16:22:54.020408 25677 net.cpp:67] Creating Layer ip2
I0120 16:22:54.020416 25677 net.cpp:226] ip2 <- ip1
I0120 16:22:54.020426 25677 net.cpp:187] ip2 -> ipout2
I0120 16:22:54.020455 25677 net.cpp:84] Top shape: 4 3 1 1 (12)
I0120 16:22:54.020467 25677 net.cpp:121] ip2 needs backward computation.
I0120 16:22:54.020479 25677 net.cpp:67] Creating Layer loss
I0120 16:22:54.020488 25677 net.cpp:226] loss <- ipout2
I0120 16:22:54.020495 25677 net.cpp:226] loss <- label
I0120 16:22:54.020511 25677 net.cpp:121] loss needs backward computation.
I0120 16:22:54.020522 25677 net.cpp:295] Collecting Learning Rate and Weight Decay.
I0120 16:22:54.020530 25677 net.cpp:159] Network initialization done.
I0120 16:22:54.020537 25677 net.cpp:160] Memory required for data: 0
I0120 16:22:54.020562 25677 solver.cpp:75] Creating testing net (#0) from file: test.prototxt
I0120 16:22:54.020742 25677 net.cpp:39] Initializing net from parameters: 
name: "CaffeNet"
layers {
  top: "data"
  top: "label"
  name: "data"
  type: DATA
  data_param {
    source: "multi-label-test.leveldb"
    mean_file: "mean.binaryproto"
    batch_size: 40
  }
}
layers {
  bottom: "data"
  top: "ip1"
  name: "ip1"
  type: INNER_PRODUCT
  inner_product_param {
    num_output: 300
    weight_filler {
      type: "xavier"
    }
    bias_filler {
      type: "constant"
    }
  }
}
layers {
  bottom: "ip1"
  top: "ip1"
  name: "relu1"
  type: RELU
}
layers {
  bottom: "ip1"
  top: "ipout2"
  name: "ip2"
  type: INNER_PRODUCT
  inner_product_param {
    num_output: 3
    weight_filler {
      type: "xavier"
    }
    bias_filler {
      type: "constant"
    }
  }
}
layers {
  bottom: "ipout2"
  bottom: "label"
  top: "accuracy"
  name: "accuracy"
  type: MULTI_LABEL_ACCURACY
}
I0120 16:22:54.020794 25677 net.cpp:67] Creating Layer data
I0120 16:22:54.020805 25677 net.cpp:187] data -> data
I0120 16:22:54.020817 25677 net.cpp:187] data -> label
I0120 16:22:54.020829 25677 data_layer.cpp:193] Opening leveldb multi-label-test.leveldb
I0120 16:22:54.119052 25677 data_layer.cpp:278] output data size: 40,3,16,16
I0120 16:22:54.119084 25677 data_layer.cpp:286] output label size: 40,3,1,1
I0120 16:22:54.119102 25677 data_layer.cpp:303] Loading mean file frommean.binaryproto
I0120 16:22:54.119330 25677 net.cpp:84] Top shape: 40 3 16 16 (30720)
I0120 16:22:54.119354 25677 net.cpp:84] Top shape: 40 3 1 1 (120)
I0120 16:22:54.119374 25677 net.cpp:126] data does not need backward computation.
I0120 16:22:54.119401 25677 net.cpp:67] Creating Layer ip1
I0120 16:22:54.119424 25677 net.cpp:226] ip1 <- data
I0120 16:22:54.119451 25677 net.cpp:187] ip1 -> ip1
I0120 16:22:54.124639 25677 net.cpp:84] Top shape: 40 300 1 1 (12000)
I0120 16:22:54.124665 25677 net.cpp:121] ip1 needs backward computation.
I0120 16:22:54.124680 25677 net.cpp:67] Creating Layer relu1
I0120 16:22:54.124688 25677 net.cpp:226] relu1 <- ip1
I0120 16:22:54.124701 25677 net.cpp:177] relu1 -> ip1 (in-place)
I0120 16:22:54.124716 25677 net.cpp:84] Top shape: 40 300 1 1 (12000)
I0120 16:22:54.124725 25677 net.cpp:121] relu1 needs backward computation.
I0120 16:22:54.124737 25677 net.cpp:67] Creating Layer ip2
I0120 16:22:54.124747 25677 net.cpp:226] ip2 <- ip1
I0120 16:22:54.124758 25677 net.cpp:187] ip2 -> ipout2
I0120 16:22:54.124802 25677 net.cpp:84] Top shape: 40 3 1 1 (120)
I0120 16:22:54.124819 25677 net.cpp:121] ip2 needs backward computation.
I0120 16:22:54.124830 25677 net.cpp:67] Creating Layer accuracy
I0120 16:22:54.124840 25677 net.cpp:226] accuracy <- ipout2
I0120 16:22:54.124850 25677 net.cpp:226] accuracy <- label
I0120 16:22:54.124861 25677 net.cpp:187] accuracy -> accuracy
I0120 16:22:54.124882 25677 net.cpp:84] Top shape: 1 5 1 1 (5)
I0120 16:22:54.124891 25677 net.cpp:121] accuracy needs backward computation.
I0120 16:22:54.124899 25677 net.cpp:148] This network produces output accuracy
I0120 16:22:54.124913 25677 net.cpp:295] Collecting Learning Rate and Weight Decay.
I0120 16:22:54.124925 25677 net.cpp:159] Network initialization done.
I0120 16:22:54.124933 25677 net.cpp:160] Memory required for data: 0
I0120 16:22:54.124964 25677 solver.cpp:79] Solver scaffolding done.
…
