…
test_net: "test.prototxt"
test_iter: 1
test_interval: 200
base_lr: 0.0001
display: 20
max_iter: 5000
lr_policy: "step"
gamma: 0.1
momentum: 0.9
weight_decay: 0.0005
stepsize: 1000
snapshot: 1000
snapshot_prefix: "multi_label_train"
solver_mode: GPU
I0120 16:23:17.415527  3777 solver.cpp:56] Creating training net from file: train.prototxt
I0120 16:23:17.415763  3777 net.cpp:39] Initializing net from parameters: 
name: "CaffeNet"
layers {
  top: "data"
  top: "label"
  name: "data"
  type: DATA
  data_param {
    source: "multi-label-train.leveldb"
    mean_file: "mean.binaryproto"
    batch_size: 4
  }
}
layers {
  bottom: "data"
  top: "ip1"
  name: "ip1"
  type: INNER_PRODUCT
  blobs_lr: 1
  blobs_lr: 2
  inner_product_param {
    num_output: 350
    weight_filler {
      type: "xavier"
    }
    bias_filler {
      type: "constant"
    }
  }
}
layers {
  bottom: "ip1"
  top: "ip1"
  name: "relu1"
  type: RELU
}
layers {
  bottom: "ip1"
  top: "ipout2"
  name: "ip2"
  type: INNER_PRODUCT
  blobs_lr: 1
  blobs_lr: 2
  inner_product_param {
    num_output: 3
    weight_filler {
      type: "xavier"
    }
    bias_filler {
      type: "constant"
    }
  }
}
layers {
  bottom: "ipout2"
  bottom: "label"
  name: "loss"
  type: MULTI_LABEL_LOSS
}
I0120 16:23:17.415822  3777 net.cpp:67] Creating Layer data
I0120 16:23:17.415829  3777 net.cpp:187] data -> data
I0120 16:23:17.415843  3777 net.cpp:187] data -> label
I0120 16:23:17.415871  3777 data_layer.cpp:193] Opening leveldb multi-label-train.leveldb
I0120 16:23:17.539733  3777 data_layer.cpp:278] output data size: 4,3,16,16
I0120 16:23:17.539764  3777 data_layer.cpp:286] output label size: 4,3,1,1
I0120 16:23:17.539775  3777 data_layer.cpp:303] Loading mean file frommean.binaryproto
I0120 16:23:17.539921  3777 net.cpp:84] Top shape: 4 3 16 16 (3072)
I0120 16:23:17.539939  3777 net.cpp:84] Top shape: 4 3 1 1 (12)
I0120 16:23:17.539949  3777 net.cpp:126] data does not need backward computation.
I0120 16:23:17.539968  3777 net.cpp:67] Creating Layer ip1
I0120 16:23:17.539976  3777 net.cpp:226] ip1 <- data
I0120 16:23:17.539995  3777 net.cpp:187] ip1 -> ip1
I0120 16:23:17.546234  3777 net.cpp:84] Top shape: 4 350 1 1 (1400)
I0120 16:23:17.546262  3777 net.cpp:121] ip1 needs backward computation.
I0120 16:23:17.546277  3777 net.cpp:67] Creating Layer relu1
I0120 16:23:17.546286  3777 net.cpp:226] relu1 <- ip1
I0120 16:23:17.546298  3777 net.cpp:177] relu1 -> ip1 (in-place)
I0120 16:23:17.546321  3777 net.cpp:84] Top shape: 4 350 1 1 (1400)
I0120 16:23:17.546331  3777 net.cpp:121] relu1 needs backward computation.
I0120 16:23:17.546344  3777 net.cpp:67] Creating Layer ip2
I0120 16:23:17.546352  3777 net.cpp:226] ip2 <- ip1
I0120 16:23:17.546365  3777 net.cpp:187] ip2 -> ipout2
I0120 16:23:17.546411  3777 net.cpp:84] Top shape: 4 3 1 1 (12)
I0120 16:23:17.546424  3777 net.cpp:121] ip2 needs backward computation.
I0120 16:23:17.546442  3777 net.cpp:67] Creating Layer loss
I0120 16:23:17.546452  3777 net.cpp:226] loss <- ipout2
I0120 16:23:17.546461  3777 net.cpp:226] loss <- label
I0120 16:23:17.546481  3777 net.cpp:121] loss needs backward computation.
I0120 16:23:17.546495  3777 net.cpp:295] Collecting Learning Rate and Weight Decay.
I0120 16:23:17.546506  3777 net.cpp:159] Network initialization done.
I0120 16:23:17.546514  3777 net.cpp:160] Memory required for data: 0
I0120 16:23:17.546547  3777 solver.cpp:75] Creating testing net (#0) from file: test.prototxt
I0120 16:23:17.546921  3777 net.cpp:39] Initializing net from parameters: 
name: "CaffeNet"
layers {
  top: "data"
  top: "label"
  name: "data"
  type: DATA
  data_param {
    source: "multi-label-test.leveldb"
    mean_file: "mean.binaryproto"
    batch_size: 40
  }
}
layers {
  bottom: "data"
  top: "ip1"
  name: "ip1"
  type: INNER_PRODUCT
  inner_product_param {
    num_output: 350
    weight_filler {
      type: "xavier"
    }
    bias_filler {
      type: "constant"
    }
  }
}
layers {
  bottom: "ip1"
  top: "ip1"
  name: "relu1"
  type: RELU
}
layers {
  bottom: "ip1"
  top: "ipout2"
  name: "ip2"
  type: INNER_PRODUCT
  inner_product_param {
    num_output: 3
    weight_filler {
      type: "xavier"
    }
    bias_filler {
      type: "constant"
    }
  }
}
layers {
  bottom: "ipout2"
  bottom: "label"
  top: "accuracy"
  name: "accuracy"
  type: MULTI_LABEL_ACCURACY
}
I0120 16:23:17.546993  3777 net.cpp:67] Creating Layer data
I0120 16:23:17.547008  3777 net.cpp:187] data -> data
I0120 16:23:17.547024  3777 net.cpp:187] data -> label
I0120 16:23:17.547041  3777 data_layer.cpp:193] Opening leveldb multi-label-test.leveldb
I0120 16:23:17.657131  3777 data_layer.cpp:278] output data size: 40,3,16,16
I0120 16:23:17.657157  3777 data_layer.cpp:286] output label size: 40,3,1,1
I0120 16:23:17.657167  3777 data_layer.cpp:303] Loading mean file frommean.binaryproto
I0120 16:23:17.657357  3777 net.cpp:84] Top shape: 40 3 16 16 (30720)
I0120 16:23:17.657377  3777 net.cpp:84] Top shape: 40 3 1 1 (120)
I0120 16:23:17.657387  3777 net.cpp:126] data does not need backward computation.
I0120 16:23:17.657402  3777 net.cpp:67] Creating Layer ip1
I0120 16:23:17.657412  3777 net.cpp:226] ip1 <- data
I0120 16:23:17.657429  3777 net.cpp:187] ip1 -> ip1
I0120 16:23:17.663532  3777 net.cpp:84] Top shape: 40 350 1 1 (14000)
I0120 16:23:17.663559  3777 net.cpp:121] ip1 needs backward computation.
I0120 16:23:17.663573  3777 net.cpp:67] Creating Layer relu1
I0120 16:23:17.663581  3777 net.cpp:226] relu1 <- ip1
I0120 16:23:17.663594  3777 net.cpp:177] relu1 -> ip1 (in-place)
I0120 16:23:17.663609  3777 net.cpp:84] Top shape: 40 350 1 1 (14000)
I0120 16:23:17.663620  3777 net.cpp:121] relu1 needs backward computation.
I0120 16:23:17.663631  3777 net.cpp:67] Creating Layer ip2
I0120 16:23:17.663640  3777 net.cpp:226] ip2 <- ip1
I0120 16:23:17.663652  3777 net.cpp:187] ip2 -> ipout2
I0120 16:23:17.663697  3777 net.cpp:84] Top shape: 40 3 1 1 (120)
I0120 16:23:17.663708  3777 net.cpp:121] ip2 needs backward computation.
I0120 16:23:17.663720  3777 net.cpp:67] Creating Layer accuracy
I0120 16:23:17.663728  3777 net.cpp:226] accuracy <- ipout2
I0120 16:23:17.663739  3777 net.cpp:226] accuracy <- label
I0120 16:23:17.663751  3777 net.cpp:187] accuracy -> accuracy
I0120 16:23:17.663766  3777 net.cpp:84] Top shape: 1 5 1 1 (5)
I0120 16:23:17.663775  3777 net.cpp:121] accuracy needs backward computation.
I0120 16:23:17.663784  3777 net.cpp:148] This network produces output accuracy
I0120 16:23:17.663797  3777 net.cpp:295] Collecting Learning Rate and Weight Decay.
I0120 16:23:17.663808  3777 net.cpp:159] Network initialization done.
I0120 16:23:17.663816  3777 net.cpp:160] Memory required for data: 0
I0120 16:23:17.663836  3777 solver.cpp:79] Solver scaffolding done.
…
