…
test_net: "test.prototxt"
test_iter: 1
test_interval: 200
base_lr: 0.0001
display: 20
max_iter: 5000
lr_policy: "step"
gamma: 0.1
momentum: 0.9
weight_decay: 0.0005
stepsize: 1000
snapshot: 1000
snapshot_prefix: "multi_label_train"
solver_mode: GPU
I0120 16:20:11.899628 16974 solver.cpp:56] Creating training net from file: train.prototxt
I0120 16:20:11.899890 16974 net.cpp:39] Initializing net from parameters: 
name: "CaffeNet"
layers {
  top: "data"
  top: "label"
  name: "data"
  type: DATA
  data_param {
    source: "multi-label-train.leveldb"
    mean_file: "mean.binaryproto"
    batch_size: 4
  }
}
layers {
  bottom: "data"
  top: "ip1"
  name: "ip1"
  type: INNER_PRODUCT
  blobs_lr: 1
  blobs_lr: 2
  inner_product_param {
    num_output: 4
    weight_filler {
      type: "xavier"
    }
    bias_filler {
      type: "constant"
    }
  }
}
layers {
  bottom: "ip1"
  top: "ip1"
  name: "relu1"
  type: RELU
}
layers {
  bottom: "ip1"
  top: "ipout2"
  name: "ip2"
  type: INNER_PRODUCT
  blobs_lr: 1
  blobs_lr: 2
  inner_product_param {
    num_output: 3
    weight_filler {
      type: "xavier"
    }
    bias_filler {
      type: "constant"
    }
  }
}
layers {
  bottom: "ipout2"
  bottom: "label"
  name: "loss"
  type: MULTI_LABEL_LOSS
}
I0120 16:20:11.899945 16974 net.cpp:67] Creating Layer data
I0120 16:20:11.899952 16974 net.cpp:187] data -> data
I0120 16:20:11.899966 16974 net.cpp:187] data -> label
I0120 16:20:11.899997 16974 data_layer.cpp:193] Opening leveldb multi-label-train.leveldb
I0120 16:20:12.028264 16974 data_layer.cpp:278] output data size: 4,3,16,16
I0120 16:20:12.028282 16974 data_layer.cpp:286] output label size: 4,3,1,1
I0120 16:20:12.028287 16974 data_layer.cpp:303] Loading mean file frommean.binaryproto
I0120 16:20:12.028358 16974 net.cpp:84] Top shape: 4 3 16 16 (3072)
I0120 16:20:12.028367 16974 net.cpp:84] Top shape: 4 3 1 1 (12)
I0120 16:20:12.028372 16974 net.cpp:126] data does not need backward computation.
I0120 16:20:12.028383 16974 net.cpp:67] Creating Layer ip1
I0120 16:20:12.028386 16974 net.cpp:226] ip1 <- data
I0120 16:20:12.028395 16974 net.cpp:187] ip1 -> ip1
I0120 16:20:12.028471 16974 net.cpp:84] Top shape: 4 4 1 1 (16)
I0120 16:20:12.028486 16974 net.cpp:121] ip1 needs backward computation.
I0120 16:20:12.028496 16974 net.cpp:67] Creating Layer relu1
I0120 16:20:12.028506 16974 net.cpp:226] relu1 <- ip1
I0120 16:20:12.028515 16974 net.cpp:177] relu1 -> ip1 (in-place)
I0120 16:20:12.028527 16974 net.cpp:84] Top shape: 4 4 1 1 (16)
I0120 16:20:12.028532 16974 net.cpp:121] relu1 needs backward computation.
I0120 16:20:12.028537 16974 net.cpp:67] Creating Layer ip2
I0120 16:20:12.028540 16974 net.cpp:226] ip2 <- ip1
I0120 16:20:12.028547 16974 net.cpp:187] ip2 -> ipout2
I0120 16:20:12.028558 16974 net.cpp:84] Top shape: 4 3 1 1 (12)
I0120 16:20:12.028563 16974 net.cpp:121] ip2 needs backward computation.
I0120 16:20:12.028569 16974 net.cpp:67] Creating Layer loss
I0120 16:20:12.028573 16974 net.cpp:226] loss <- ipout2
I0120 16:20:12.028578 16974 net.cpp:226] loss <- label
I0120 16:20:12.028586 16974 net.cpp:121] loss needs backward computation.
I0120 16:20:12.028599 16974 net.cpp:295] Collecting Learning Rate and Weight Decay.
I0120 16:20:12.028609 16974 net.cpp:159] Network initialization done.
I0120 16:20:12.028619 16974 net.cpp:160] Memory required for data: 0
I0120 16:20:12.028640 16974 solver.cpp:75] Creating testing net (#0) from file: test.prototxt
I0120 16:20:12.028803 16974 net.cpp:39] Initializing net from parameters: 
name: "CaffeNet"
layers {
  top: "data"
  top: "label"
  name: "data"
  type: DATA
  data_param {
    source: "multi-label-test.leveldb"
    mean_file: "mean.binaryproto"
    batch_size: 40
  }
}
layers {
  bottom: "data"
  top: "ip1"
  name: "ip1"
  type: INNER_PRODUCT
  inner_product_param {
    num_output: 4
    weight_filler {
      type: "xavier"
    }
    bias_filler {
      type: "constant"
    }
  }
}
layers {
  bottom: "ip1"
  top: "ip1"
  name: "relu1"
  type: RELU
}
layers {
  bottom: "ip1"
  top: "ipout2"
  name: "ip2"
  type: INNER_PRODUCT
  inner_product_param {
    num_output: 3
    weight_filler {
      type: "xavier"
    }
    bias_filler {
      type: "constant"
    }
  }
}
layers {
  bottom: "ipout2"
  bottom: "label"
  top: "accuracy"
  name: "accuracy"
  type: MULTI_LABEL_ACCURACY
}
I0120 16:20:12.028841 16974 net.cpp:67] Creating Layer data
I0120 16:20:12.028846 16974 net.cpp:187] data -> data
I0120 16:20:12.028853 16974 net.cpp:187] data -> label
I0120 16:20:12.028861 16974 data_layer.cpp:193] Opening leveldb multi-label-test.leveldb
I0120 16:20:12.145913 16974 data_layer.cpp:278] output data size: 40,3,16,16
I0120 16:20:12.145941 16974 data_layer.cpp:286] output label size: 40,3,1,1
I0120 16:20:12.145951 16974 data_layer.cpp:303] Loading mean file frommean.binaryproto
I0120 16:20:12.146155 16974 net.cpp:84] Top shape: 40 3 16 16 (30720)
I0120 16:20:12.146173 16974 net.cpp:84] Top shape: 40 3 1 1 (120)
I0120 16:20:12.146183 16974 net.cpp:126] data does not need backward computation.
I0120 16:20:12.146203 16974 net.cpp:67] Creating Layer ip1
I0120 16:20:12.146214 16974 net.cpp:226] ip1 <- data
I0120 16:20:12.146230 16974 net.cpp:187] ip1 -> ip1
I0120 16:20:12.146327 16974 net.cpp:84] Top shape: 40 4 1 1 (160)
I0120 16:20:12.146344 16974 net.cpp:121] ip1 needs backward computation.
I0120 16:20:12.146356 16974 net.cpp:67] Creating Layer relu1
I0120 16:20:12.146364 16974 net.cpp:226] relu1 <- ip1
I0120 16:20:12.146376 16974 net.cpp:177] relu1 -> ip1 (in-place)
I0120 16:20:12.146384 16974 net.cpp:84] Top shape: 40 4 1 1 (160)
I0120 16:20:12.146387 16974 net.cpp:121] relu1 needs backward computation.
I0120 16:20:12.146392 16974 net.cpp:67] Creating Layer ip2
I0120 16:20:12.146395 16974 net.cpp:226] ip2 <- ip1
I0120 16:20:12.146400 16974 net.cpp:187] ip2 -> ipout2
I0120 16:20:12.146414 16974 net.cpp:84] Top shape: 40 3 1 1 (120)
I0120 16:20:12.146420 16974 net.cpp:121] ip2 needs backward computation.
I0120 16:20:12.146425 16974 net.cpp:67] Creating Layer accuracy
I0120 16:20:12.146428 16974 net.cpp:226] accuracy <- ipout2
I0120 16:20:12.146432 16974 net.cpp:226] accuracy <- label
I0120 16:20:12.146438 16974 net.cpp:187] accuracy -> accuracy
I0120 16:20:12.146445 16974 net.cpp:84] Top shape: 1 5 1 1 (5)
I0120 16:20:12.146450 16974 net.cpp:121] accuracy needs backward computation.
I0120 16:20:12.146453 16974 net.cpp:148] This network produces output accuracy
I0120 16:20:12.146459 16974 net.cpp:295] Collecting Learning Rate and Weight Decay.
I0120 16:20:12.146464 16974 net.cpp:159] Network initialization done.
I0120 16:20:12.146467 16974 net.cpp:160] Memory required for data: 0
I0120 16:20:12.146481 16974 solver.cpp:79] Solver scaffolding done.
…
