…
test_net: "test.prototxt"
test_iter: 1
test_interval: 200
base_lr: 0.0001
display: 20
max_iter: 5000
lr_policy: "step"
gamma: 0.1
momentum: 0.9
weight_decay: 0.0005
stepsize: 1000
snapshot: 1000
snapshot_prefix: "multi_label_train"
solver_mode: GPU
I0120 16:23:42.288235 14016 solver.cpp:56] Creating training net from file: train.prototxt
I0120 16:23:42.288485 14016 net.cpp:39] Initializing net from parameters: 
name: "CaffeNet"
layers {
  top: "data"
  top: "label"
  name: "data"
  type: DATA
  data_param {
    source: "multi-label-train.leveldb"
    mean_file: "mean.binaryproto"
    batch_size: 4
  }
}
layers {
  bottom: "data"
  top: "ip1"
  name: "ip1"
  type: INNER_PRODUCT
  blobs_lr: 1
  blobs_lr: 2
  inner_product_param {
    num_output: 400
    weight_filler {
      type: "xavier"
    }
    bias_filler {
      type: "constant"
    }
  }
}
layers {
  bottom: "ip1"
  top: "ip1"
  name: "relu1"
  type: RELU
}
layers {
  bottom: "ip1"
  top: "ipout2"
  name: "ip2"
  type: INNER_PRODUCT
  blobs_lr: 1
  blobs_lr: 2
  inner_product_param {
    num_output: 3
    weight_filler {
      type: "xavier"
    }
    bias_filler {
      type: "constant"
    }
  }
}
layers {
  bottom: "ipout2"
  bottom: "label"
  name: "loss"
  type: MULTI_LABEL_LOSS
}
I0120 16:23:42.288558 14016 net.cpp:67] Creating Layer data
I0120 16:23:42.288569 14016 net.cpp:187] data -> data
I0120 16:23:42.288592 14016 net.cpp:187] data -> label
I0120 16:23:42.288635 14016 data_layer.cpp:193] Opening leveldb multi-label-train.leveldb
I0120 16:23:42.394258 14016 data_layer.cpp:278] output data size: 4,3,16,16
I0120 16:23:42.394273 14016 data_layer.cpp:286] output label size: 4,3,1,1
I0120 16:23:42.394279 14016 data_layer.cpp:303] Loading mean file frommean.binaryproto
I0120 16:23:42.394351 14016 net.cpp:84] Top shape: 4 3 16 16 (3072)
I0120 16:23:42.394361 14016 net.cpp:84] Top shape: 4 3 1 1 (12)
I0120 16:23:42.394366 14016 net.cpp:126] data does not need backward computation.
I0120 16:23:42.394376 14016 net.cpp:67] Creating Layer ip1
I0120 16:23:42.394379 14016 net.cpp:226] ip1 <- data
I0120 16:23:42.394388 14016 net.cpp:187] ip1 -> ip1
I0120 16:23:42.397406 14016 net.cpp:84] Top shape: 4 400 1 1 (1600)
I0120 16:23:42.397419 14016 net.cpp:121] ip1 needs backward computation.
I0120 16:23:42.397425 14016 net.cpp:67] Creating Layer relu1
I0120 16:23:42.397429 14016 net.cpp:226] relu1 <- ip1
I0120 16:23:42.397434 14016 net.cpp:177] relu1 -> ip1 (in-place)
I0120 16:23:42.397445 14016 net.cpp:84] Top shape: 4 400 1 1 (1600)
I0120 16:23:42.397450 14016 net.cpp:121] relu1 needs backward computation.
I0120 16:23:42.397455 14016 net.cpp:67] Creating Layer ip2
I0120 16:23:42.397459 14016 net.cpp:226] ip2 <- ip1
I0120 16:23:42.397464 14016 net.cpp:187] ip2 -> ipout2
I0120 16:23:42.397490 14016 net.cpp:84] Top shape: 4 3 1 1 (12)
I0120 16:23:42.397495 14016 net.cpp:121] ip2 needs backward computation.
I0120 16:23:42.397500 14016 net.cpp:67] Creating Layer loss
I0120 16:23:42.397507 14016 net.cpp:226] loss <- ipout2
I0120 16:23:42.397511 14016 net.cpp:226] loss <- label
I0120 16:23:42.397521 14016 net.cpp:121] loss needs backward computation.
I0120 16:23:42.397527 14016 net.cpp:295] Collecting Learning Rate and Weight Decay.
I0120 16:23:42.397533 14016 net.cpp:159] Network initialization done.
I0120 16:23:42.397536 14016 net.cpp:160] Memory required for data: 0
I0120 16:23:42.397554 14016 solver.cpp:75] Creating testing net (#0) from file: test.prototxt
I0120 16:23:42.397718 14016 net.cpp:39] Initializing net from parameters: 
name: "CaffeNet"
layers {
  top: "data"
  top: "label"
  name: "data"
  type: DATA
  data_param {
    source: "multi-label-test.leveldb"
    mean_file: "mean.binaryproto"
    batch_size: 40
  }
}
layers {
  bottom: "data"
  top: "ip1"
  name: "ip1"
  type: INNER_PRODUCT
  inner_product_param {
    num_output: 400
    weight_filler {
      type: "xavier"
    }
    bias_filler {
      type: "constant"
    }
  }
}
layers {
  bottom: "ip1"
  top: "ip1"
  name: "relu1"
  type: RELU
}
layers {
  bottom: "ip1"
  top: "ipout2"
  name: "ip2"
  type: INNER_PRODUCT
  inner_product_param {
    num_output: 3
    weight_filler {
      type: "xavier"
    }
    bias_filler {
      type: "constant"
    }
  }
}
layers {
  bottom: "ipout2"
  bottom: "label"
  top: "accuracy"
  name: "accuracy"
  type: MULTI_LABEL_ACCURACY
}
I0120 16:23:42.397753 14016 net.cpp:67] Creating Layer data
I0120 16:23:42.397759 14016 net.cpp:187] data -> data
I0120 16:23:42.397768 14016 net.cpp:187] data -> label
I0120 16:23:42.397774 14016 data_layer.cpp:193] Opening leveldb multi-label-test.leveldb
I0120 16:23:42.503206 14016 data_layer.cpp:278] output data size: 40,3,16,16
I0120 16:23:42.503219 14016 data_layer.cpp:286] output label size: 40,3,1,1
I0120 16:23:42.503223 14016 data_layer.cpp:303] Loading mean file frommean.binaryproto
I0120 16:23:42.503320 14016 net.cpp:84] Top shape: 40 3 16 16 (30720)
I0120 16:23:42.503329 14016 net.cpp:84] Top shape: 40 3 1 1 (120)
I0120 16:23:42.503334 14016 net.cpp:126] data does not need backward computation.
I0120 16:23:42.503341 14016 net.cpp:67] Creating Layer ip1
I0120 16:23:42.503345 14016 net.cpp:226] ip1 <- data
I0120 16:23:42.503351 14016 net.cpp:187] ip1 -> ip1
I0120 16:23:42.509428 14016 net.cpp:84] Top shape: 40 400 1 1 (16000)
I0120 16:23:42.509456 14016 net.cpp:121] ip1 needs backward computation.
I0120 16:23:42.509470 14016 net.cpp:67] Creating Layer relu1
I0120 16:23:42.509479 14016 net.cpp:226] relu1 <- ip1
I0120 16:23:42.509491 14016 net.cpp:177] relu1 -> ip1 (in-place)
I0120 16:23:42.509506 14016 net.cpp:84] Top shape: 40 400 1 1 (16000)
I0120 16:23:42.509516 14016 net.cpp:121] relu1 needs backward computation.
I0120 16:23:42.509527 14016 net.cpp:67] Creating Layer ip2
I0120 16:23:42.509536 14016 net.cpp:226] ip2 <- ip1
I0120 16:23:42.509547 14016 net.cpp:187] ip2 -> ipout2
I0120 16:23:42.509596 14016 net.cpp:84] Top shape: 40 3 1 1 (120)
I0120 16:23:42.509613 14016 net.cpp:121] ip2 needs backward computation.
I0120 16:23:42.509624 14016 net.cpp:67] Creating Layer accuracy
I0120 16:23:42.509632 14016 net.cpp:226] accuracy <- ipout2
I0120 16:23:42.509644 14016 net.cpp:226] accuracy <- label
I0120 16:23:42.509655 14016 net.cpp:187] accuracy -> accuracy
I0120 16:23:42.509675 14016 net.cpp:84] Top shape: 1 5 1 1 (5)
I0120 16:23:42.509685 14016 net.cpp:121] accuracy needs backward computation.
I0120 16:23:42.509692 14016 net.cpp:148] This network produces output accuracy
I0120 16:23:42.509706 14016 net.cpp:295] Collecting Learning Rate and Weight Decay.
I0120 16:23:42.509717 14016 net.cpp:159] Network initialization done.
I0120 16:23:42.509726 14016 net.cpp:160] Memory required for data: 0
I0120 16:23:42.509757 14016 solver.cpp:79] Solver scaffolding done.
…
