…
test_net: "test.prototxt"
test_iter: 1
test_interval: 200
base_lr: 0.0001
display: 20
max_iter: 5000
lr_policy: "step"
gamma: 0.1
momentum: 0.9
weight_decay: 0.0005
stepsize: 1000
snapshot: 1000
snapshot_prefix: "multi_label_train"
solver_mode: GPU
I0120 16:24:06.101364 24238 solver.cpp:56] Creating training net from file: train.prototxt
I0120 16:24:06.101622 24238 net.cpp:39] Initializing net from parameters: 
name: "CaffeNet"
layers {
  top: "data"
  top: "label"
  name: "data"
  type: DATA
  data_param {
    source: "multi-label-train.leveldb"
    mean_file: "mean.binaryproto"
    batch_size: 4
  }
}
layers {
  bottom: "data"
  top: "ip1"
  name: "ip1"
  type: INNER_PRODUCT
  blobs_lr: 1
  blobs_lr: 2
  inner_product_param {
    num_output: 450
    weight_filler {
      type: "xavier"
    }
    bias_filler {
      type: "constant"
    }
  }
}
layers {
  bottom: "ip1"
  top: "ip1"
  name: "relu1"
  type: RELU
}
layers {
  bottom: "ip1"
  top: "ipout2"
  name: "ip2"
  type: INNER_PRODUCT
  blobs_lr: 1
  blobs_lr: 2
  inner_product_param {
    num_output: 3
    weight_filler {
      type: "xavier"
    }
    bias_filler {
      type: "constant"
    }
  }
}
layers {
  bottom: "ipout2"
  bottom: "label"
  name: "loss"
  type: MULTI_LABEL_LOSS
}
I0120 16:24:06.101694 24238 net.cpp:67] Creating Layer data
I0120 16:24:06.101704 24238 net.cpp:187] data -> data
I0120 16:24:06.101718 24238 net.cpp:187] data -> label
I0120 16:24:06.101747 24238 data_layer.cpp:193] Opening leveldb multi-label-train.leveldb
I0120 16:24:06.239655 24238 data_layer.cpp:278] output data size: 4,3,16,16
I0120 16:24:06.239684 24238 data_layer.cpp:286] output label size: 4,3,1,1
I0120 16:24:06.239696 24238 data_layer.cpp:303] Loading mean file frommean.binaryproto
I0120 16:24:06.239826 24238 net.cpp:84] Top shape: 4 3 16 16 (3072)
I0120 16:24:06.239845 24238 net.cpp:84] Top shape: 4 3 1 1 (12)
I0120 16:24:06.239856 24238 net.cpp:126] data does not need backward computation.
I0120 16:24:06.239873 24238 net.cpp:67] Creating Layer ip1
I0120 16:24:06.239882 24238 net.cpp:226] ip1 <- data
I0120 16:24:06.239902 24238 net.cpp:187] ip1 -> ip1
I0120 16:24:06.247835 24238 net.cpp:84] Top shape: 4 450 1 1 (1800)
I0120 16:24:06.247864 24238 net.cpp:121] ip1 needs backward computation.
I0120 16:24:06.247879 24238 net.cpp:67] Creating Layer relu1
I0120 16:24:06.247886 24238 net.cpp:226] relu1 <- ip1
I0120 16:24:06.247902 24238 net.cpp:177] relu1 -> ip1 (in-place)
I0120 16:24:06.247926 24238 net.cpp:84] Top shape: 4 450 1 1 (1800)
I0120 16:24:06.247937 24238 net.cpp:121] relu1 needs backward computation.
I0120 16:24:06.247949 24238 net.cpp:67] Creating Layer ip2
I0120 16:24:06.247958 24238 net.cpp:226] ip2 <- ip1
I0120 16:24:06.247970 24238 net.cpp:187] ip2 -> ipout2
I0120 16:24:06.248031 24238 net.cpp:84] Top shape: 4 3 1 1 (12)
I0120 16:24:06.248047 24238 net.cpp:121] ip2 needs backward computation.
I0120 16:24:06.248064 24238 net.cpp:67] Creating Layer loss
I0120 16:24:06.248072 24238 net.cpp:226] loss <- ipout2
I0120 16:24:06.248082 24238 net.cpp:226] loss <- label
I0120 16:24:06.248102 24238 net.cpp:121] loss needs backward computation.
I0120 16:24:06.248116 24238 net.cpp:295] Collecting Learning Rate and Weight Decay.
I0120 16:24:06.248127 24238 net.cpp:159] Network initialization done.
I0120 16:24:06.248134 24238 net.cpp:160] Memory required for data: 0
I0120 16:24:06.248168 24238 solver.cpp:75] Creating testing net (#0) from file: test.prototxt
I0120 16:24:06.248558 24238 net.cpp:39] Initializing net from parameters: 
name: "CaffeNet"
layers {
  top: "data"
  top: "label"
  name: "data"
  type: DATA
  data_param {
    source: "multi-label-test.leveldb"
    mean_file: "mean.binaryproto"
    batch_size: 40
  }
}
layers {
  bottom: "data"
  top: "ip1"
  name: "ip1"
  type: INNER_PRODUCT
  inner_product_param {
    num_output: 450
    weight_filler {
      type: "xavier"
    }
    bias_filler {
      type: "constant"
    }
  }
}
layers {
  bottom: "ip1"
  top: "ip1"
  name: "relu1"
  type: RELU
}
layers {
  bottom: "ip1"
  top: "ipout2"
  name: "ip2"
  type: INNER_PRODUCT
  inner_product_param {
    num_output: 3
    weight_filler {
      type: "xavier"
    }
    bias_filler {
      type: "constant"
    }
  }
}
layers {
  bottom: "ipout2"
  bottom: "label"
  top: "accuracy"
  name: "accuracy"
  type: MULTI_LABEL_ACCURACY
}
I0120 16:24:06.248637 24238 net.cpp:67] Creating Layer data
I0120 16:24:06.248651 24238 net.cpp:187] data -> data
I0120 16:24:06.248668 24238 net.cpp:187] data -> label
I0120 16:24:06.248685 24238 data_layer.cpp:193] Opening leveldb multi-label-test.leveldb
I0120 16:24:06.365254 24238 data_layer.cpp:278] output data size: 40,3,16,16
I0120 16:24:06.365272 24238 data_layer.cpp:286] output label size: 40,3,1,1
I0120 16:24:06.365279 24238 data_layer.cpp:303] Loading mean file frommean.binaryproto
I0120 16:24:06.365418 24238 net.cpp:84] Top shape: 40 3 16 16 (30720)
I0120 16:24:06.365430 24238 net.cpp:84] Top shape: 40 3 1 1 (120)
I0120 16:24:06.365437 24238 net.cpp:126] data does not need backward computation.
I0120 16:24:06.365447 24238 net.cpp:67] Creating Layer ip1
I0120 16:24:06.365454 24238 net.cpp:226] ip1 <- data
I0120 16:24:06.365463 24238 net.cpp:187] ip1 -> ip1
I0120 16:24:06.371937 24238 net.cpp:84] Top shape: 40 450 1 1 (18000)
I0120 16:24:06.371963 24238 net.cpp:121] ip1 needs backward computation.
I0120 16:24:06.371978 24238 net.cpp:67] Creating Layer relu1
I0120 16:24:06.371986 24238 net.cpp:226] relu1 <- ip1
I0120 16:24:06.371999 24238 net.cpp:177] relu1 -> ip1 (in-place)
I0120 16:24:06.372014 24238 net.cpp:84] Top shape: 40 450 1 1 (18000)
I0120 16:24:06.372023 24238 net.cpp:121] relu1 needs backward computation.
I0120 16:24:06.372035 24238 net.cpp:67] Creating Layer ip2
I0120 16:24:06.372047 24238 net.cpp:226] ip2 <- ip1
I0120 16:24:06.372061 24238 net.cpp:187] ip2 -> ipout2
I0120 16:24:06.372115 24238 net.cpp:84] Top shape: 40 3 1 1 (120)
I0120 16:24:06.372128 24238 net.cpp:121] ip2 needs backward computation.
I0120 16:24:06.372140 24238 net.cpp:67] Creating Layer accuracy
I0120 16:24:06.372149 24238 net.cpp:226] accuracy <- ipout2
I0120 16:24:06.372159 24238 net.cpp:226] accuracy <- label
I0120 16:24:06.372171 24238 net.cpp:187] accuracy -> accuracy
I0120 16:24:06.372222 24238 net.cpp:84] Top shape: 1 5 1 1 (5)
I0120 16:24:06.372234 24238 net.cpp:121] accuracy needs backward computation.
I0120 16:24:06.372241 24238 net.cpp:148] This network produces output accuracy
I0120 16:24:06.372256 24238 net.cpp:295] Collecting Learning Rate and Weight Decay.
I0120 16:24:06.372267 24238 net.cpp:159] Network initialization done.
I0120 16:24:06.372274 24238 net.cpp:160] Memory required for data: 0
I0120 16:24:06.372305 24238 solver.cpp:79] Solver scaffolding done.
…
