…
test_net: "test.prototxt"
test_iter: 1
test_interval: 200
base_lr: 0.0001
display: 20
max_iter: 5000
lr_policy: "step"
gamma: 0.1
momentum: 0.9
weight_decay: 0.0005
stepsize: 1000
snapshot: 1000
snapshot_prefix: "multi_label_train"
solver_mode: GPU
I0120 16:20:41.527618 22060 solver.cpp:56] Creating training net from file: train.prototxt
I0120 16:20:41.527865 22060 net.cpp:39] Initializing net from parameters: 
name: "CaffeNet"
layers {
  top: "data"
  top: "label"
  name: "data"
  type: DATA
  data_param {
    source: "multi-label-train.leveldb"
    mean_file: "mean.binaryproto"
    batch_size: 4
  }
}
layers {
  bottom: "data"
  top: "ip1"
  name: "ip1"
  type: INNER_PRODUCT
  blobs_lr: 1
  blobs_lr: 2
  inner_product_param {
    num_output: 50
    weight_filler {
      type: "xavier"
    }
    bias_filler {
      type: "constant"
    }
  }
}
layers {
  bottom: "ip1"
  top: "ip1"
  name: "relu1"
  type: RELU
}
layers {
  bottom: "ip1"
  top: "ipout2"
  name: "ip2"
  type: INNER_PRODUCT
  blobs_lr: 1
  blobs_lr: 2
  inner_product_param {
    num_output: 3
    weight_filler {
      type: "xavier"
    }
    bias_filler {
      type: "constant"
    }
  }
}
layers {
  bottom: "ipout2"
  bottom: "label"
  name: "loss"
  type: MULTI_LABEL_LOSS
}
I0120 16:20:41.527925 22060 net.cpp:67] Creating Layer data
I0120 16:20:41.527931 22060 net.cpp:187] data -> data
I0120 16:20:41.527945 22060 net.cpp:187] data -> label
I0120 16:20:41.527972 22060 data_layer.cpp:193] Opening leveldb multi-label-train.leveldb
I0120 16:20:41.624411 22060 data_layer.cpp:278] output data size: 4,3,16,16
I0120 16:20:41.624441 22060 data_layer.cpp:286] output label size: 4,3,1,1
I0120 16:20:41.624451 22060 data_layer.cpp:303] Loading mean file frommean.binaryproto
I0120 16:20:41.624583 22060 net.cpp:84] Top shape: 4 3 16 16 (3072)
I0120 16:20:41.624600 22060 net.cpp:84] Top shape: 4 3 1 1 (12)
I0120 16:20:41.624610 22060 net.cpp:126] data does not need backward computation.
I0120 16:20:41.624626 22060 net.cpp:67] Creating Layer ip1
I0120 16:20:41.624636 22060 net.cpp:226] ip1 <- data
I0120 16:20:41.624655 22060 net.cpp:187] ip1 -> ip1
I0120 16:20:41.625609 22060 net.cpp:84] Top shape: 4 50 1 1 (200)
I0120 16:20:41.625643 22060 net.cpp:121] ip1 needs backward computation.
I0120 16:20:41.625658 22060 net.cpp:67] Creating Layer relu1
I0120 16:20:41.625666 22060 net.cpp:226] relu1 <- ip1
I0120 16:20:41.625679 22060 net.cpp:177] relu1 -> ip1 (in-place)
I0120 16:20:41.625702 22060 net.cpp:84] Top shape: 4 50 1 1 (200)
I0120 16:20:41.625712 22060 net.cpp:121] relu1 needs backward computation.
I0120 16:20:41.625725 22060 net.cpp:67] Creating Layer ip2
I0120 16:20:41.625732 22060 net.cpp:226] ip2 <- ip1
I0120 16:20:41.625746 22060 net.cpp:187] ip2 -> ipout2
I0120 16:20:41.625771 22060 net.cpp:84] Top shape: 4 3 1 1 (12)
I0120 16:20:41.625782 22060 net.cpp:121] ip2 needs backward computation.
I0120 16:20:41.625803 22060 net.cpp:67] Creating Layer loss
I0120 16:20:41.625814 22060 net.cpp:226] loss <- ipout2
I0120 16:20:41.625821 22060 net.cpp:226] loss <- label
I0120 16:20:41.625834 22060 net.cpp:121] loss needs backward computation.
I0120 16:20:41.625843 22060 net.cpp:295] Collecting Learning Rate and Weight Decay.
I0120 16:20:41.625849 22060 net.cpp:159] Network initialization done.
I0120 16:20:41.625854 22060 net.cpp:160] Memory required for data: 0
I0120 16:20:41.625876 22060 solver.cpp:75] Creating testing net (#0) from file: test.prototxt
I0120 16:20:41.626199 22060 net.cpp:39] Initializing net from parameters: 
name: "CaffeNet"
layers {
  top: "data"
  top: "label"
  name: "data"
  type: DATA
  data_param {
    source: "multi-label-test.leveldb"
    mean_file: "mean.binaryproto"
    batch_size: 40
  }
}
layers {
  bottom: "data"
  top: "ip1"
  name: "ip1"
  type: INNER_PRODUCT
  inner_product_param {
    num_output: 50
    weight_filler {
      type: "xavier"
    }
    bias_filler {
      type: "constant"
    }
  }
}
layers {
  bottom: "ip1"
  top: "ip1"
  name: "relu1"
  type: RELU
}
layers {
  bottom: "ip1"
  top: "ipout2"
  name: "ip2"
  type: INNER_PRODUCT
  inner_product_param {
    num_output: 3
    weight_filler {
      type: "xavier"
    }
    bias_filler {
      type: "constant"
    }
  }
}
layers {
  bottom: "ipout2"
  bottom: "label"
  top: "accuracy"
  name: "accuracy"
  type: MULTI_LABEL_ACCURACY
}
I0120 16:20:41.626272 22060 net.cpp:67] Creating Layer data
I0120 16:20:41.626286 22060 net.cpp:187] data -> data
I0120 16:20:41.626303 22060 net.cpp:187] data -> label
I0120 16:20:41.626320 22060 data_layer.cpp:193] Opening leveldb multi-label-test.leveldb
I0120 16:20:41.710084 22060 data_layer.cpp:278] output data size: 40,3,16,16
I0120 16:20:41.710109 22060 data_layer.cpp:286] output label size: 40,3,1,1
I0120 16:20:41.710119 22060 data_layer.cpp:303] Loading mean file frommean.binaryproto
I0120 16:20:41.710310 22060 net.cpp:84] Top shape: 40 3 16 16 (30720)
I0120 16:20:41.710328 22060 net.cpp:84] Top shape: 40 3 1 1 (120)
I0120 16:20:41.710338 22060 net.cpp:126] data does not need backward computation.
I0120 16:20:41.710355 22060 net.cpp:67] Creating Layer ip1
I0120 16:20:41.710366 22060 net.cpp:226] ip1 <- data
I0120 16:20:41.710383 22060 net.cpp:187] ip1 -> ip1
I0120 16:20:41.711256 22060 net.cpp:84] Top shape: 40 50 1 1 (2000)
I0120 16:20:41.711279 22060 net.cpp:121] ip1 needs backward computation.
I0120 16:20:41.711292 22060 net.cpp:67] Creating Layer relu1
I0120 16:20:41.711302 22060 net.cpp:226] relu1 <- ip1
I0120 16:20:41.711313 22060 net.cpp:177] relu1 -> ip1 (in-place)
I0120 16:20:41.711326 22060 net.cpp:84] Top shape: 40 50 1 1 (2000)
I0120 16:20:41.711336 22060 net.cpp:121] relu1 needs backward computation.
I0120 16:20:41.711349 22060 net.cpp:67] Creating Layer ip2
I0120 16:20:41.711356 22060 net.cpp:226] ip2 <- ip1
I0120 16:20:41.711367 22060 net.cpp:187] ip2 -> ipout2
I0120 16:20:41.711392 22060 net.cpp:84] Top shape: 40 3 1 1 (120)
I0120 16:20:41.711403 22060 net.cpp:121] ip2 needs backward computation.
I0120 16:20:41.711416 22060 net.cpp:67] Creating Layer accuracy
I0120 16:20:41.711423 22060 net.cpp:226] accuracy <- ipout2
I0120 16:20:41.711433 22060 net.cpp:226] accuracy <- label
I0120 16:20:41.711444 22060 net.cpp:187] accuracy -> accuracy
I0120 16:20:41.711459 22060 net.cpp:84] Top shape: 1 5 1 1 (5)
I0120 16:20:41.711465 22060 net.cpp:121] accuracy needs backward computation.
I0120 16:20:41.711470 22060 net.cpp:148] This network produces output accuracy
I0120 16:20:41.711478 22060 net.cpp:295] Collecting Learning Rate and Weight Decay.
I0120 16:20:41.711485 22060 net.cpp:159] Network initialization done.
I0120 16:20:41.711490 22060 net.cpp:160] Memory required for data: 0
I0120 16:20:41.711508 22060 solver.cpp:79] Solver scaffolding done.
…
