…
test_net: "test.prototxt"
test_iter: 1
test_interval: 200
base_lr: 0.0001
display: 20
max_iter: 5000
lr_policy: "step"
gamma: 0.1
momentum: 0.9
weight_decay: 0.0005
stepsize: 1000
snapshot: 1000
snapshot_prefix: "multi_label_train"
solver_mode: GPU
I0120 16:24:31.417945  2074 solver.cpp:56] Creating training net from file: train.prototxt
I0120 16:24:31.418215  2074 net.cpp:39] Initializing net from parameters: 
name: "CaffeNet"
layers {
  top: "data"
  top: "label"
  name: "data"
  type: DATA
  data_param {
    source: "multi-label-train.leveldb"
    mean_file: "mean.binaryproto"
    batch_size: 4
  }
}
layers {
  bottom: "data"
  top: "ip1"
  name: "ip1"
  type: INNER_PRODUCT
  blobs_lr: 1
  blobs_lr: 2
  inner_product_param {
    num_output: 500
    weight_filler {
      type: "xavier"
    }
    bias_filler {
      type: "constant"
    }
  }
}
layers {
  bottom: "ip1"
  top: "ip1"
  name: "relu1"
  type: RELU
}
layers {
  bottom: "ip1"
  top: "ipout2"
  name: "ip2"
  type: INNER_PRODUCT
  blobs_lr: 1
  blobs_lr: 2
  inner_product_param {
    num_output: 3
    weight_filler {
      type: "xavier"
    }
    bias_filler {
      type: "constant"
    }
  }
}
layers {
  bottom: "ipout2"
  bottom: "label"
  name: "loss"
  type: MULTI_LABEL_LOSS
}
I0120 16:24:31.418287  2074 net.cpp:67] Creating Layer data
I0120 16:24:31.418299  2074 net.cpp:187] data -> data
I0120 16:24:31.418320  2074 net.cpp:187] data -> label
I0120 16:24:31.418360  2074 data_layer.cpp:193] Opening leveldb multi-label-train.leveldb
I0120 16:24:31.540676  2074 data_layer.cpp:278] output data size: 4,3,16,16
I0120 16:24:31.540693  2074 data_layer.cpp:286] output label size: 4,3,1,1
I0120 16:24:31.540701  2074 data_layer.cpp:303] Loading mean file frommean.binaryproto
I0120 16:24:31.540788  2074 net.cpp:84] Top shape: 4 3 16 16 (3072)
I0120 16:24:31.540799  2074 net.cpp:84] Top shape: 4 3 1 1 (12)
I0120 16:24:31.540807  2074 net.cpp:126] data does not need backward computation.
I0120 16:24:31.540820  2074 net.cpp:67] Creating Layer ip1
I0120 16:24:31.540828  2074 net.cpp:226] ip1 <- data
I0120 16:24:31.540843  2074 net.cpp:187] ip1 -> ip1
I0120 16:24:31.544545  2074 net.cpp:84] Top shape: 4 500 1 1 (2000)
I0120 16:24:31.544561  2074 net.cpp:121] ip1 needs backward computation.
I0120 16:24:31.544572  2074 net.cpp:67] Creating Layer relu1
I0120 16:24:31.544579  2074 net.cpp:226] relu1 <- ip1
I0120 16:24:31.544589  2074 net.cpp:177] relu1 -> ip1 (in-place)
I0120 16:24:31.544606  2074 net.cpp:84] Top shape: 4 500 1 1 (2000)
I0120 16:24:31.544618  2074 net.cpp:121] relu1 needs backward computation.
I0120 16:24:31.544630  2074 net.cpp:67] Creating Layer ip2
I0120 16:24:31.544637  2074 net.cpp:226] ip2 <- ip1
I0120 16:24:31.544647  2074 net.cpp:187] ip2 -> ipout2
I0120 16:24:31.544688  2074 net.cpp:84] Top shape: 4 3 1 1 (12)
I0120 16:24:31.544700  2074 net.cpp:121] ip2 needs backward computation.
I0120 16:24:31.544713  2074 net.cpp:67] Creating Layer loss
I0120 16:24:31.544719  2074 net.cpp:226] loss <- ipout2
I0120 16:24:31.544728  2074 net.cpp:226] loss <- label
I0120 16:24:31.544744  2074 net.cpp:121] loss needs backward computation.
I0120 16:24:31.544755  2074 net.cpp:295] Collecting Learning Rate and Weight Decay.
I0120 16:24:31.544764  2074 net.cpp:159] Network initialization done.
I0120 16:24:31.544770  2074 net.cpp:160] Memory required for data: 0
I0120 16:24:31.544800  2074 solver.cpp:75] Creating testing net (#0) from file: test.prototxt
I0120 16:24:31.544978  2074 net.cpp:39] Initializing net from parameters: 
name: "CaffeNet"
layers {
  top: "data"
  top: "label"
  name: "data"
  type: DATA
  data_param {
    source: "multi-label-test.leveldb"
    mean_file: "mean.binaryproto"
    batch_size: 40
  }
}
layers {
  bottom: "data"
  top: "ip1"
  name: "ip1"
  type: INNER_PRODUCT
  inner_product_param {
    num_output: 500
    weight_filler {
      type: "xavier"
    }
    bias_filler {
      type: "constant"
    }
  }
}
layers {
  bottom: "ip1"
  top: "ip1"
  name: "relu1"
  type: RELU
}
layers {
  bottom: "ip1"
  top: "ipout2"
  name: "ip2"
  type: INNER_PRODUCT
  inner_product_param {
    num_output: 3
    weight_filler {
      type: "xavier"
    }
    bias_filler {
      type: "constant"
    }
  }
}
layers {
  bottom: "ipout2"
  bottom: "label"
  top: "accuracy"
  name: "accuracy"
  type: MULTI_LABEL_ACCURACY
}
I0120 16:24:31.545029  2074 net.cpp:67] Creating Layer data
I0120 16:24:31.545040  2074 net.cpp:187] data -> data
I0120 16:24:31.545053  2074 net.cpp:187] data -> label
I0120 16:24:31.545065  2074 data_layer.cpp:193] Opening leveldb multi-label-test.leveldb
I0120 16:24:31.641542  2074 data_layer.cpp:278] output data size: 40,3,16,16
I0120 16:24:31.641572  2074 data_layer.cpp:286] output label size: 40,3,1,1
I0120 16:24:31.641592  2074 data_layer.cpp:303] Loading mean file frommean.binaryproto
I0120 16:24:31.641825  2074 net.cpp:84] Top shape: 40 3 16 16 (30720)
I0120 16:24:31.641849  2074 net.cpp:84] Top shape: 40 3 1 1 (120)
I0120 16:24:31.641868  2074 net.cpp:126] data does not need backward computation.
I0120 16:24:31.641901  2074 net.cpp:67] Creating Layer ip1
I0120 16:24:31.641919  2074 net.cpp:226] ip1 <- data
I0120 16:24:31.641947  2074 net.cpp:187] ip1 -> ip1
I0120 16:24:31.650758  2074 net.cpp:84] Top shape: 40 500 1 1 (20000)
I0120 16:24:31.650792  2074 net.cpp:121] ip1 needs backward computation.
I0120 16:24:31.650817  2074 net.cpp:67] Creating Layer relu1
I0120 16:24:31.650835  2074 net.cpp:226] relu1 <- ip1
I0120 16:24:31.650858  2074 net.cpp:177] relu1 -> ip1 (in-place)
I0120 16:24:31.650883  2074 net.cpp:84] Top shape: 40 500 1 1 (20000)
I0120 16:24:31.650902  2074 net.cpp:121] relu1 needs backward computation.
I0120 16:24:31.650923  2074 net.cpp:67] Creating Layer ip2
I0120 16:24:31.650940  2074 net.cpp:226] ip2 <- ip1
I0120 16:24:31.650964  2074 net.cpp:187] ip2 -> ipout2
I0120 16:24:31.651049  2074 net.cpp:84] Top shape: 40 3 1 1 (120)
I0120 16:24:31.651075  2074 net.cpp:121] ip2 needs backward computation.
I0120 16:24:31.651100  2074 net.cpp:67] Creating Layer accuracy
I0120 16:24:31.651118  2074 net.cpp:226] accuracy <- ipout2
I0120 16:24:31.651137  2074 net.cpp:226] accuracy <- label
I0120 16:24:31.651160  2074 net.cpp:187] accuracy -> accuracy
I0120 16:24:31.651187  2074 net.cpp:84] Top shape: 1 5 1 1 (5)
I0120 16:24:31.651206  2074 net.cpp:121] accuracy needs backward computation.
I0120 16:24:31.651219  2074 net.cpp:148] This network produces output accuracy
I0120 16:24:31.651244  2074 net.cpp:295] Collecting Learning Rate and Weight Decay.
I0120 16:24:31.651264  2074 net.cpp:159] Network initialization done.
I0120 16:24:31.651279  2074 net.cpp:160] Memory required for data: 0
I0120 16:24:31.651329  2074 solver.cpp:79] Solver scaffolding done.
…
