…
test_net: "test.prototxt"
test_iter: 1
test_interval: 200
base_lr: 0.0001
display: 20
max_iter: 5000
lr_policy: "step"
gamma: 0.1
momentum: 0.9
weight_decay: 0.0005
stepsize: 1000
snapshot: 1000
snapshot_prefix: "multi_label_train"
solver_mode: GPU
I0120 16:21:26.080268 32216 solver.cpp:56] Creating training net from file: train.prototxt
I0120 16:21:26.080515 32216 net.cpp:39] Initializing net from parameters: 
name: "CaffeNet"
layers {
  top: "data"
  top: "label"
  name: "data"
  type: DATA
  data_param {
    source: "multi-label-train.leveldb"
    mean_file: "mean.binaryproto"
    batch_size: 4
  }
}
layers {
  bottom: "data"
  top: "ip1"
  name: "ip1"
  type: INNER_PRODUCT
  blobs_lr: 1
  blobs_lr: 2
  inner_product_param {
    num_output: 200
    weight_filler {
      type: "xavier"
    }
    bias_filler {
      type: "constant"
    }
  }
}
layers {
  bottom: "ip1"
  top: "ip1"
  name: "relu1"
  type: RELU
}
layers {
  bottom: "ip1"
  top: "ipout2"
  name: "ip2"
  type: INNER_PRODUCT
  blobs_lr: 1
  blobs_lr: 2
  inner_product_param {
    num_output: 3
    weight_filler {
      type: "xavier"
    }
    bias_filler {
      type: "constant"
    }
  }
}
layers {
  bottom: "ipout2"
  bottom: "label"
  name: "loss"
  type: MULTI_LABEL_LOSS
}
I0120 16:21:26.080574 32216 net.cpp:67] Creating Layer data
I0120 16:21:26.080580 32216 net.cpp:187] data -> data
I0120 16:21:26.080595 32216 net.cpp:187] data -> label
I0120 16:21:26.080623 32216 data_layer.cpp:193] Opening leveldb multi-label-train.leveldb
I0120 16:21:26.192005 32216 data_layer.cpp:278] output data size: 4,3,16,16
I0120 16:21:26.192039 32216 data_layer.cpp:286] output label size: 4,3,1,1
I0120 16:21:26.192049 32216 data_layer.cpp:303] Loading mean file frommean.binaryproto
I0120 16:21:26.192220 32216 net.cpp:84] Top shape: 4 3 16 16 (3072)
I0120 16:21:26.192229 32216 net.cpp:84] Top shape: 4 3 1 1 (12)
I0120 16:21:26.192242 32216 net.cpp:126] data does not need backward computation.
I0120 16:21:26.192261 32216 net.cpp:67] Creating Layer ip1
I0120 16:21:26.192270 32216 net.cpp:226] ip1 <- data
I0120 16:21:26.192288 32216 net.cpp:187] ip1 -> ip1
I0120 16:21:26.195833 32216 net.cpp:84] Top shape: 4 200 1 1 (800)
I0120 16:21:26.195858 32216 net.cpp:121] ip1 needs backward computation.
I0120 16:21:26.195873 32216 net.cpp:67] Creating Layer relu1
I0120 16:21:26.195881 32216 net.cpp:226] relu1 <- ip1
I0120 16:21:26.195894 32216 net.cpp:177] relu1 -> ip1 (in-place)
I0120 16:21:26.195916 32216 net.cpp:84] Top shape: 4 200 1 1 (800)
I0120 16:21:26.195926 32216 net.cpp:121] relu1 needs backward computation.
I0120 16:21:26.195937 32216 net.cpp:67] Creating Layer ip2
I0120 16:21:26.195946 32216 net.cpp:226] ip2 <- ip1
I0120 16:21:26.195958 32216 net.cpp:187] ip2 -> ipout2
I0120 16:21:26.195994 32216 net.cpp:84] Top shape: 4 3 1 1 (12)
I0120 16:21:26.196010 32216 net.cpp:121] ip2 needs backward computation.
I0120 16:21:26.196024 32216 net.cpp:67] Creating Layer loss
I0120 16:21:26.196033 32216 net.cpp:226] loss <- ipout2
I0120 16:21:26.196043 32216 net.cpp:226] loss <- label
I0120 16:21:26.196063 32216 net.cpp:121] loss needs backward computation.
I0120 16:21:26.196082 32216 net.cpp:295] Collecting Learning Rate and Weight Decay.
I0120 16:21:26.196099 32216 net.cpp:159] Network initialization done.
I0120 16:21:26.196106 32216 net.cpp:160] Memory required for data: 0
I0120 16:21:26.196141 32216 solver.cpp:75] Creating testing net (#0) from file: test.prototxt
I0120 16:21:26.196581 32216 net.cpp:39] Initializing net from parameters: 
name: "CaffeNet"
layers {
  top: "data"
  top: "label"
  name: "data"
  type: DATA
  data_param {
    source: "multi-label-test.leveldb"
    mean_file: "mean.binaryproto"
    batch_size: 40
  }
}
layers {
  bottom: "data"
  top: "ip1"
  name: "ip1"
  type: INNER_PRODUCT
  inner_product_param {
    num_output: 200
    weight_filler {
      type: "xavier"
    }
    bias_filler {
      type: "constant"
    }
  }
}
layers {
  bottom: "ip1"
  top: "ip1"
  name: "relu1"
  type: RELU
}
layers {
  bottom: "ip1"
  top: "ipout2"
  name: "ip2"
  type: INNER_PRODUCT
  inner_product_param {
    num_output: 3
    weight_filler {
      type: "xavier"
    }
    bias_filler {
      type: "constant"
    }
  }
}
layers {
  bottom: "ipout2"
  bottom: "label"
  top: "accuracy"
  name: "accuracy"
  type: MULTI_LABEL_ACCURACY
}
I0120 16:21:26.196657 32216 net.cpp:67] Creating Layer data
I0120 16:21:26.196671 32216 net.cpp:187] data -> data
I0120 16:21:26.196688 32216 net.cpp:187] data -> label
I0120 16:21:26.196705 32216 data_layer.cpp:193] Opening leveldb multi-label-test.leveldb
I0120 16:21:26.301241 32216 data_layer.cpp:278] output data size: 40,3,16,16
I0120 16:21:26.301267 32216 data_layer.cpp:286] output label size: 40,3,1,1
I0120 16:21:26.301277 32216 data_layer.cpp:303] Loading mean file frommean.binaryproto
I0120 16:21:26.301470 32216 net.cpp:84] Top shape: 40 3 16 16 (30720)
I0120 16:21:26.301487 32216 net.cpp:84] Top shape: 40 3 1 1 (120)
I0120 16:21:26.301497 32216 net.cpp:126] data does not need backward computation.
I0120 16:21:26.301513 32216 net.cpp:67] Creating Layer ip1
I0120 16:21:26.301522 32216 net.cpp:226] ip1 <- data
I0120 16:21:26.301540 32216 net.cpp:187] ip1 -> ip1
I0120 16:21:26.304970 32216 net.cpp:84] Top shape: 40 200 1 1 (8000)
I0120 16:21:26.304996 32216 net.cpp:121] ip1 needs backward computation.
I0120 16:21:26.305009 32216 net.cpp:67] Creating Layer relu1
I0120 16:21:26.305018 32216 net.cpp:226] relu1 <- ip1
I0120 16:21:26.305030 32216 net.cpp:177] relu1 -> ip1 (in-place)
I0120 16:21:26.305043 32216 net.cpp:84] Top shape: 40 200 1 1 (8000)
I0120 16:21:26.305053 32216 net.cpp:121] relu1 needs backward computation.
I0120 16:21:26.305064 32216 net.cpp:67] Creating Layer ip2
I0120 16:21:26.305071 32216 net.cpp:226] ip2 <- ip1
I0120 16:21:26.305084 32216 net.cpp:187] ip2 -> ipout2
I0120 16:21:26.305120 32216 net.cpp:84] Top shape: 40 3 1 1 (120)
I0120 16:21:26.305135 32216 net.cpp:121] ip2 needs backward computation.
I0120 16:21:26.305147 32216 net.cpp:67] Creating Layer accuracy
I0120 16:21:26.305155 32216 net.cpp:226] accuracy <- ipout2
I0120 16:21:26.305172 32216 net.cpp:226] accuracy <- label
I0120 16:21:26.305184 32216 net.cpp:187] accuracy -> accuracy
I0120 16:21:26.305199 32216 net.cpp:84] Top shape: 1 5 1 1 (5)
I0120 16:21:26.305208 32216 net.cpp:121] accuracy needs backward computation.
I0120 16:21:26.305215 32216 net.cpp:148] This network produces output accuracy
I0120 16:21:26.305229 32216 net.cpp:295] Collecting Learning Rate and Weight Decay.
I0120 16:21:26.305240 32216 net.cpp:159] Network initialization done.
I0120 16:21:26.305248 32216 net.cpp:160] Memory required for data: 0
I0120 16:21:26.305279 32216 solver.cpp:79] Solver scaffolding done.
…
